…
The number of items: 42810
Average actions of items: 74.75110373986779
The number of inters: 3200020
The sparsity of the dataset: 99.96210828878715%
Remain Fields: ['user_id', 'item_id', 'rating']
25 Nov 13:05    INFO  [Training]: train_batch_size = [2048] train_neg_sample_args: [{'distribution': 'uniform', 'sample_num': 1, 'alpha': 1.0, 'dynamic': False, 'candidate_num': 0}]
25 Nov 13:05    INFO  [Evaluation]: eval_batch_size = [2048] eval_args: [{'split': {'RS': [0.8, 0.1, 0.1]}, 'order': 'RO', 'group_by': 'user', 'mode': {'valid': 'full', 'test': 'full'}}]
25 Nov 13:07    INFO  NNCF(
  (user_embedding): Embedding(197271, 64)
  (item_embedding): Embedding(42810, 64)
  (user_neigh_embedding): Embedding(42810, 32)
  (item_neigh_embedding): Embedding(197271, 32)
  (user_conv): Sequential(
    (0): Conv1d(32, 128, kernel_size=(5,), stride=(1,))
    (1): MaxPool1d(kernel_size=5, stride=5, padding=0, dilation=1, ceil_mode=False)
    (2): ReLU()
  )
  (item_conv): Sequential(
    (0): Conv1d(32, 128, kernel_size=(5,), stride=(1,))
    (1): MaxPool1d(kernel_size=5, stride=5, padding=0, dilation=1, ceil_mode=False)
    (2): ReLU()
  )
  (mlp_layers): MLPLayers(
    (mlp_layers): Sequential(
      (0): Dropout(p=0.5, inplace=False)
      (1): Linear(in_features=832, out_features=128, bias=True)
      (2): ReLU()
      (3): Dropout(p=0.5, inplace=False)
      (4): Linear(in_features=128, out_features=64, bias=True)
      (5): ReLU()
      (6): Dropout(p=0.5, inplace=False)
      (7): Linear(in_features=64, out_features=32, bias=True)
      (8): ReLU()
      (9): Dropout(p=0.5, inplace=False)
      (10): Linear(in_features=32, out_features=16, bias=True)
      (11): ReLU()
    )
  )
  (out_layer): Linear(in_features=16, out_features=1, bias=True)
  (dropout_layer): Dropout(p=0.5, inplace=False)
  (loss): BCEWithLogitsLoss()
)
Trainable parameters: 23206497
25 Nov 13:07    INFO  FLOPs: 774032.0
/home/g064474/.local/lib/python3.11/site-packages/recbole/trainer/trainer.py:235: FutureWarning: `torch.cuda.amp.GradScaler(args...)` is deprecated. Please use `torch.amp.GradScaler('cuda', args...)` instead.
…
The number of items: 42810
Average actions of items: 74.75110373986779
The number of inters: 3200020
The sparsity of the dataset: 99.96210828878715%
Remain Fields: ['user_id', 'item_id', 'rating']
25 Nov 14:59    INFO  [Training]: train_batch_size = [2048] train_neg_sample_args: [{'distribution': 'uniform', 'sample_num': 1, 'alpha': 1.0, 'dynamic': False, 'candidate_num': 0}]
25 Nov 14:59    INFO  [Evaluation]: eval_batch_size = [2048] eval_args: [{'split': {'RS': [0.8, 0.1, 0.1]}, 'order': 'RO', 'group_by': 'user', 'mode': {'valid': 'full', 'test': 'full'}}]
25 Nov 14:59    INFO  RaCT(
  (encoder): Sequential(
    (0): Linear(in_features=42810, out_features=600, bias=True)
    (1): Tanh()
    (2): Linear(in_features=600, out_features=256, bias=True)
  )
  (decoder): Sequential(
    (0): Linear(in_features=128, out_features=600, bias=True)
    (1): Tanh()
    (2): Linear(in_features=600, out_features=42810, bias=True)
  )
  (critic_net): Sequential(
    (0): BatchNorm1d(3, eps=1e-05, momentum=0.1, affine=True, track_running_stats=True)
    (1): Linear(in_features=3, out_features=100, bias=True)
    (2): ReLU()
    (3): Linear(in_features=100, out_features=100, bias=True)
    (4): ReLU()
    (5): Linear(in_features=100, out_features=10, bias=True)
    (6): ReLU()
    (7): Linear(in_features=10, out_features=1, bias=True)
    (8): Sigmoid()
  )
)
Trainable parameters: 51646666
25 Nov 14:59    INFO  FLOPs: 51602400.0
/home/g064474/.local/lib/python3.11/site-packages/recbole/trainer/trainer.py:235: FutureWarning: `torch.cuda.amp.GradScaler(args...)` is deprecated. Please use `torch.amp.GradScaler('cuda', args...)` instead.
  scaler = amp.GradScaler(enabled=self.enable_scaler)
…
The number of items: 42810
Average actions of items: 74.75110373986779
The number of inters: 3200020
The sparsity of the dataset: 99.96210828878715%
Remain Fields: ['user_id', 'item_id', 'rating']
25 Nov 15:00    INFO  [Training]: train_batch_size = [2048] train_neg_sample_args: [{'distribution': 'uniform', 'sample_num': 1, 'alpha': 1.0, 'dynamic': False, 'candidate_num': 0}]
25 Nov 15:00    INFO  [Evaluation]: eval_batch_size = [2048] eval_args: [{'split': {'RS': [0.8, 0.1, 0.1]}, 'order': 'RO', 'group_by': 'user', 'mode': {'valid': 'full', 'test': 'full'}}]
25 Nov 15:00    INFO  RecVAE(
  (encoder): Encoder(
    (fc1): Linear(in_features=42810, out_features=600, bias=True)
    (ln1): LayerNorm((600,), eps=0.1, elementwise_affine=True)
    (fc2): Linear(in_features=600, out_features=600, bias=True)
    (ln2): LayerNorm((600,), eps=0.1, elementwise_affine=True)
    (fc3): Linear(in_features=600, out_features=600, bias=True)
    (ln3): LayerNorm((600,), eps=0.1, elementwise_affine=True)
    (fc4): Linear(in_features=600, out_features=600, bias=True)
    (ln4): LayerNorm((600,), eps=0.1, elementwise_affine=True)
    (fc5): Linear(in_features=600, out_features=600, bias=True)
    (ln5): LayerNorm((600,), eps=0.1, elementwise_affine=True)
    (fc_mu): Linear(in_features=600, out_features=200, bias=True)
    (fc_logvar): Linear(in_features=600, out_features=200, bias=True)
  )
  (prior): CompositePrior(
    (encoder_old): Encoder(
      (fc1): Linear(in_features=42810, out_features=600, bias=True)
      (ln1): LayerNorm((600,), eps=0.1, elementwise_affine=True)
      (fc2): Linear(in_features=600, out_features=600, bias=True)
      (ln2): LayerNorm((600,), eps=0.1, elementwise_affine=True)
      (fc3): Linear(in_features=600, out_features=600, bias=True)
      (ln3): LayerNorm((600,), eps=0.1, elementwise_affine=True)
      (fc4): Linear(in_features=600, out_features=600, bias=True)
      (ln4): LayerNorm((600,), eps=0.1, elementwise_affine=True)
      (fc5): Linear(in_features=600, out_features=600, bias=True)
      (ln5): LayerNorm((600,), eps=0.1, elementwise_affine=True)
      (fc_mu): Linear(in_features=600, out_features=200, bias=True)
      (fc_logvar): Linear(in_features=600, out_features=200, bias=True)
    )
  )
  (decoder): Linear(in_features=200, out_features=42810, bias=True)
)
Trainable parameters: 35980210
25 Nov 15:00    INFO  FLOPs: 35934000.0
/home/g064474/.local/lib/python3.11/site-packages/recbole/trainer/trainer.py:235: FutureWarning: `torch.cuda.amp.GradScaler(args...)` is deprecated. Please use `torch.amp.GradScaler('cuda', args...)` instead.
  scaler = amp.GradScaler(enabled=self.enable_scaler)
Training loss is nan
…
